…
Found 1583 images belonging to 2 classes.
Found 395 images belonging to 2 classes.
Found 496 images belonging to 2 classes.
Found 19 images belonging to 2 classes.
Labels:
Pepper__bell___Bacterial_spot 0
Pepper__bell___healthy 1
Model: "model"
_________________________________________________________________
Layer (type)                 Output Shape              Param #   
=================================================================
input_1 (InputLayer)         [(None, 250, 250, 3)]     0         
_________________________________________________________________
conv2d (Conv2D)              (None, 250, 250, 32)      896       
_________________________________________________________________
conv2d_1 (Conv2D)            (None, 250, 250, 32)      9248      
_________________________________________________________________
max_pooling2d (MaxPooling2D) (None, 125, 125, 32)      0         
_________________________________________________________________
dropout (Dropout)            (None, 125, 125, 32)      0         
_________________________________________________________________
batch_normalization (BatchNo (None, 125, 125, 32)      128       
_________________________________________________________________
conv2d_2 (Conv2D)            (None, 125, 125, 64)      18496     
_________________________________________________________________
conv2d_3 (Conv2D)            (None, 125, 125, 64)      36928     
_________________________________________________________________
max_pooling2d_1 (MaxPooling2 (None, 62, 62, 64)        0         
_________________________________________________________________
dropout_1 (Dropout)          (None, 62, 62, 64)        0         
_________________________________________________________________
batch_normalization_1 (Batch (None, 62, 62, 64)        256       
_________________________________________________________________
conv2d_4 (Conv2D)            (None, 62, 62, 128)       73856     
_________________________________________________________________
conv2d_5 (Conv2D)            (None, 62, 62, 128)       147584    
_________________________________________________________________
max_pooling2d_2 (MaxPooling2 (None, 31, 31, 128)       0         
_________________________________________________________________
dropout_2 (Dropout)          (None, 31, 31, 128)       0         
_________________________________________________________________
batch_normalization_2 (Batch (None, 31, 31, 128)       512       
_________________________________________________________________
flatten (Flatten)            (None, 123008)            0         
_________________________________________________________________
dense (Dense)                (None, 2)                 246018    
=================================================================
Total params: 533,922
Trainable params: 533,474
Non-trainable params: 448
_________________________________________________________________
None
Epoch 1/100
  1/198 [..............................] - ETA: 1:06:42 - loss: 1.2348 - accuracy: 0.3750 - f1_score: 0.3651 - recall: 0.3750 - precision: 0.36672021-04-09 16:53:32.971893: I tensorflow/core/profiler/lib/profiler_session.cc:136] Profiler session initializing.
…
