…
Found 1549 images belonging to 3 classes.
Found 172 images belonging to 3 classes.
Found 431 images belonging to 3 classes.
Found 32 images belonging to 3 classes.
Labels:
Potato___Early_blight 0
Potato___Late_blight 1
Potato___healthy 2
Model: "model"
_________________________________________________________________
Layer (type)                 Output Shape              Param #   
=================================================================
input_1 (InputLayer)         [(None, 250, 250, 3)]     0         
_________________________________________________________________
conv2d (Conv2D)              (None, 250, 250, 32)      896       
_________________________________________________________________
conv2d_1 (Conv2D)            (None, 250, 250, 32)      9248      
_________________________________________________________________
batch_normalization (BatchNo (None, 250, 250, 32)      128       
_________________________________________________________________
max_pooling2d (MaxPooling2D) (None, 125, 125, 32)      0         
_________________________________________________________________
dropout (Dropout)            (None, 125, 125, 32)      0         
_________________________________________________________________
conv2d_2 (Conv2D)            (None, 125, 125, 64)      18496     
_________________________________________________________________
conv2d_3 (Conv2D)            (None, 125, 125, 64)      36928     
_________________________________________________________________
batch_normalization_1 (Batch (None, 125, 125, 64)      256       
_________________________________________________________________
max_pooling2d_1 (MaxPooling2 (None, 62, 62, 64)        0         
_________________________________________________________________
dropout_1 (Dropout)          (None, 62, 62, 64)        0         
_________________________________________________________________
conv2d_4 (Conv2D)            (None, 62, 62, 128)       73856     
_________________________________________________________________
conv2d_5 (Conv2D)            (None, 62, 62, 128)       147584    
_________________________________________________________________
batch_normalization_2 (Batch (None, 62, 62, 128)       512       
_________________________________________________________________
max_pooling2d_2 (MaxPooling2 (None, 31, 31, 128)       0         
_________________________________________________________________
dropout_2 (Dropout)          (None, 31, 31, 128)       0         
_________________________________________________________________
flatten (Flatten)            (None, 123008)            0         
_________________________________________________________________
dropout_3 (Dropout)          (None, 123008)            0         
_________________________________________________________________
dense (Dense)                (None, 3)                 369027    
=================================================================
Total params: 656,931
Trainable params: 656,483
Non-trainable params: 448
_________________________________________________________________
None
Epoch 1/100
 1/49 [..............................] - ETA: 12:05 - loss: 0.5154 - accuracy: 0.3125 - f1_score: 0.3091 - recall: 0.4579 - precision: 0.36392021-04-09 19:59:41.373226: I tensorflow/core/profiler/lib/profiler_session.cc:136] Profiler session initializing.
…
