…
Found 3110 images belonging to 4 classes.
Found 344 images belonging to 4 classes.
Found 866 images belonging to 4 classes.
Found 20 images belonging to 4 classes.
Labels:
Tomato_healthy 0
Tomato_Leaf_Mold 1
Tomato__Target_Spot 2
Tomato__Tomato_mosaic_virus 3
Model: "model"
_________________________________________________________________
Layer (type)                 Output Shape              Param #   
=================================================================
input_1 (InputLayer)         [(None, 250, 250, 3)]     0         
_________________________________________________________________
conv2d (Conv2D)              (None, 250, 250, 32)      896       
_________________________________________________________________
conv2d_1 (Conv2D)            (None, 250, 250, 32)      9248      
_________________________________________________________________
batch_normalization (BatchNo (None, 250, 250, 32)      128       
_________________________________________________________________
max_pooling2d (MaxPooling2D) (None, 125, 125, 32)      0         
_________________________________________________________________
dropout (Dropout)            (None, 125, 125, 32)      0         
_________________________________________________________________
conv2d_2 (Conv2D)            (None, 125, 125, 64)      18496     
_________________________________________________________________
conv2d_3 (Conv2D)            (None, 125, 125, 64)      36928     
_________________________________________________________________
batch_normalization_1 (Batch (None, 125, 125, 64)      256       
_________________________________________________________________
max_pooling2d_1 (MaxPooling2 (None, 62, 62, 64)        0         
_________________________________________________________________
dropout_1 (Dropout)          (None, 62, 62, 64)        0         
_________________________________________________________________
conv2d_4 (Conv2D)            (None, 62, 62, 96)        55392     
_________________________________________________________________
conv2d_5 (Conv2D)            (None, 62, 62, 96)        83040     
_________________________________________________________________
batch_normalization_2 (Batch (None, 62, 62, 96)        384       
_________________________________________________________________
max_pooling2d_2 (MaxPooling2 (None, 31, 31, 96)        0         
_________________________________________________________________
dropout_2 (Dropout)          (None, 31, 31, 96)        0         
_________________________________________________________________
flatten (Flatten)            (None, 92256)             0         
_________________________________________________________________
dropout_3 (Dropout)          (None, 92256)             0         
_________________________________________________________________
dense (Dense)                (None, 4)                 369028    
=================================================================
Total params: 573,796
Trainable params: 573,412
Non-trainable params: 384
_________________________________________________________________
None
Epoch 1/100
 1/98 [..............................] - ETA: 24:42 - loss: 0.6176 - accuracy: 0.2500 - f1_score: 0.1940 - recall: 0.2188 - precision: 0.20242021-04-09 20:35:15.335121: I tensorflow/core/profiler/lib/profiler_session.cc:136] Profiler session initializing.
…
